Model: "sequential_1"
_________________________________________________________________
Layer (type)                 Output Shape              Param #   
=================================================================
conv1d_6 (Conv1D)            (None, 222, 240)          1680      
_________________________________________________________________
batch_normalization_6 (Batch (None, 222, 240)          960       
_________________________________________________________________
activation_6 (Activation)    (None, 222, 240)          0         
_________________________________________________________________
conv1d_7 (Conv1D)            (None, 222, 944)          454064    
_________________________________________________________________
batch_normalization_7 (Batch (None, 222, 944)          3776      
_________________________________________________________________
activation_7 (Activation)    (None, 222, 944)          0         
_________________________________________________________________
conv1d_8 (Conv1D)            (None, 222, 400)          3776400   
_________________________________________________________________
batch_normalization_8 (Batch (None, 222, 400)          1600      
_________________________________________________________________
activation_8 (Activation)    (None, 222, 400)          0         
_________________________________________________________________
conv1d_9 (Conv1D)            (None, 222, 432)          346032    
_________________________________________________________________
batch_normalization_9 (Batch (None, 222, 432)          1728      
_________________________________________________________________
activation_9 (Activation)    (None, 222, 432)          0         
_________________________________________________________________
conv1d_10 (Conv1D)           (None, 222, 176)          760496    
_________________________________________________________________
batch_normalization_10 (Batc (None, 222, 176)          704       
_________________________________________________________________
activation_10 (Activation)   (None, 222, 176)          0         
_________________________________________________________________
conv1d_11 (Conv1D)           (None, 222, 144)          152208    
_________________________________________________________________
batch_normalization_11 (Batc (None, 222, 144)          576       
_________________________________________________________________
activation_11 (Activation)   (None, 222, 144)          0         
_________________________________________________________________
conv1d_12 (Conv1D)           (None, 222, 80)           115280    
_________________________________________________________________
batch_normalization_12 (Batc (None, 222, 80)           320       
_________________________________________________________________
activation_12 (Activation)   (None, 222, 80)           0         
_________________________________________________________________
conv1d_13 (Conv1D)           (None, 222, 944)          454064    
_________________________________________________________________
batch_normalization_13 (Batc (None, 222, 944)          3776      
_________________________________________________________________
activation_13 (Activation)   (None, 222, 944)          0         
_________________________________________________________________
dense_8 (Dense)              (None, 222, 464)          438480    
_________________________________________________________________
dense_9 (Dense)              (None, 222, 752)          349680    
_________________________________________________________________
global_average_pooling1d_1 ( (None, 752)               0         
_________________________________________________________________
dense_10 (Dense)             (None, 3)                 2259      
=================================================================
Total params: 6,864,083
Trainable params: 6,857,363
Non-trainable params: 6,720
_________________________________________________________________
